backend/data/trained_model.pth (torch, 842213 bytes, 9 tensors)

network.0.weight f4 [256, 45]
0.07242282 0.12680584 -0.16681741 0.09604406 0.13310854 -0.02820522 0.09265798 0.007831797
0.10164916 0.05437455 0.04035075 -0.02908657 0.07806595 -0.084143296 0.019438434 -0.12469222
-0.14968298 0.08181214 -0.053966343 0.04671515 -0.13906252 -0.06426828 -0.02447862 -0.12112124
-0.0776525 0.21521007 0.063758306 0.057184916 0.029795444 0.032564536 -0.024047334 -0.030427324
0.01712478 -0.15592274 -0.17554311 -0.059226945 0.11724943 -0.046927594 0.06991819 -0.104429595
0.13365696 -0.11872403 -0.004680802 0.013391444 0.0987303 -0.004890653 0.019423276 0.040223803
0.32126907 0.2585111 -0.052536752 -0.10389405 0.0974048 -0.1842407 0.18694286 -0.003919721
0.028555017 -0.13132812 -0.012698177 -0.03637897 -0.08212935 0.062653504 0.0858455 0.001296502
-0.07322148 -0.03927721 -0.09573358 -0.012825793 0.10916204 0.023590023 0.035155293 0.058964748
0.05816939 -0.18907873 -0.012632785 -0.061305594 0.08525238 -0.054910164 0.024775943 0.0037632964
0.044895273 -0.07359495 -0.25713992 -0.044658702 0.082558 0.06538546 0.04755563 -0.032461777
-0.038195156 -0.0425528 0.1345147 -0.03187428 0.057160076 -0.124275245 0.08367334 0.07681417
0.0757714 -0.088884726 0.06014548 -0.11816716 0.08022544 0.14708374 0.04506701 -0.113626316
0.10798383 -0.031612393 -0.24576569 -0.077700414 -0.034751594 0.034284014 0.122314826 -0.028062236
-0.052775964 -0.010229411 0.028159566 -0.055288382 0.077180676 0.045337416 -0.03437416 -0.20669863
0.011047843 -0.008178184 0.07112267 -0.030703934 0.047928173 0.032727007 -0.021644466 -0.03378805
0.10865061 -0.0063763782 0.096391626 -0.095470086 0.14888197 -0.02852725 -0.040015474 0.09366968
0.026216485 0.13077587 0.11897474 -0.16598049 0.01832295 -0.015830249 0.21109945 0.058636814
0.048352364 -0.023488885 -0.0435771 -0.17114185 0.11749166 0.056471985 -0.13043338 -0.07903933
-0.012946412 -0.0069012665 -0.047702815 -0.01563539 0.004150467 0.050265934 -0.032853786 -0.037386842
0.102078855 -0.19884452 0.02849913 0.25114846 -0.15947194 0.07819754 -0.14377606 0.11671243
-0.047247913 -0.03670028 0.03272438 -0.05062258 0.0063049975 -0.023334617 0.07221101 0.041612756
0.11788466 -0.06637825 0.0014839612 0.009010088 0.006607113 0.11095343 0.09974346 0.006397685
-0.16694102 0.01776383 -0.051536255 -0.04720972 -0.019061005 0.017993342 -0.18005458 -0.13482134
0.04886057 0.07816286 -0.086194545 0.1427349 -0.03517855 -0.23353674 0.03243582 0.11018197
0.028129514 0.1340362 -0.10833867 0.039821163 0.11267447 0.07910919 0.07934872 0.028801814
0.060026914 -0.21438868 0.11792842 -0.04695376 0.0048923134 -0.02493573 0.013138576 -0.052897718
-0.09959456 -0.047980793 0.14994146 0.03124065 -0.13512634 0.0659381 -0.04301352 0.09711678
0.04140446 -0.060197704 -0.006613454 -0.144353 -0.18279657 -0.048461888 -0.03561449 0.0011616389
0.04990077 0.036685966 0.041360516 0.111960016 0.054580983 0.06769788 -0.0621431 -0.121358216
-0.13179971 -0.20131776 0.22212231 -0.045424353 -0.09770097 0.057866868 0.051345013 -0.062305775
0.007078266 0.038745265 -0.013006638 0.025578711 -0.0302665 0.018047417 0.035763785 0.1289169
00000000: 6a52 943d 64d9 013e 2fd2 2abe c0b2 c43d
00000010: 9b4d 083e a20e e7bc 78c3 bd3d f050 003c
00000020: 6f2d d03d d9b7 5e3d d446 253d f546 eebc
00000030: 0ae1 9f3d 5253 acbd 5a3d 9f3c a25e ffbd
00000040: 7f46 19be 208d a73d d00b 5dbd 6358 3f3d
00000050: 6866 0ebe 179f 83bd 6387 c8bc 6a0e f8bd
00000060: 4608 9fbd 0760 5c3e b793 823d bb3a 6a3d
00000070: 9315 f43c 6462 053d eafe c4bc b942 f9bc
00000080: 4449 8c3c 36aa 1fbe 93c1 33be f497 72bd
00000090: 7820 f03d 2637 40bd 4531 8f3d 2fdf d5bd
000000a0: 5fdd 083e 9625 f3bd 6a61 99bb ca67 5b3c
000000b0: 1d33 ca3d c541 a0bb 901d 9f3c b7c1 243d
000000c0: 617d a43e 915b 843e c730 57bd 67c6 d4bd
000000d0: 2b7c c73d 98a9 3cbe f36d 3f3e 0171 80bb
000000e0: 36ec e93c e17a 06be 040c 50bc 1d02 15bd
000000f0: 6f33 a8bd 7b50 803d c4cf af3d 63ef a93a
00000100: 25f5 95bd 24e1 20bd f80f c4bd 4623 52bc
00000110: 5990 df3d dd3f c13c fffe 0f3d 0585 713d
00000120: 0743 6e3d db9d 41be bef9 4ebc 931b 7bbd
00000130: cd98 ae3d 7be9 60bd ebf6 ca3c a3a1 763b
00000140: 1be4 373d f3b8 96bd d8a7 83be 0bec 36bd
00000150: 2b14 a93d d0e8 853d b1c9 423d a4f6 04bd
00000160: 8672 1cbd d84b 2ebd 39be 093e 9b8e 02bd
00000170: af20 6a3d 0584 febd ee5c ab3d bf50 9d3d
00000180: 092e 9b3d 3209 b6bd 1b5b 763d a001 f2bd
00000190: 3c4d a43d 1f9d 163e 2f98 383d eab4 e8bd
000001a0: a026 dd3d ff7b 01bd 00aa 7bbe 6521 9fbd
000001b0: b057 0ebd 656d 0c3d 3280 fa3d c6e2 e5bc
000001c0: 9c2b 58bd 4299 27bc e4ae e63c 1276 62bd
000001d0: e710 9e3d bab3 393d ebcb 0cbd cea8 53be
000001e0: 0302 353c cafd 05bc c3a8 913d d186 fbbc
000001f0: 5550 443d c10c 063d bc4f b1bc 5765 0abd
00000200: 3684 de3d f0f0 d0bb f968 c53d d285 c3bd
00000210: 8474 183e fbb1 e9bc 44e7 23bd e4d5 bf3d
00000220: f4c3 d63c 1cea 053e 07a9 f33d caf6 29be
00000230: 031a 963c 70ae 81bc 742a 583e 282d 703d
00000240: 210d 463d c36b c0bc e77d 32bd cf3f 2fbe
00000250: 789f f03d 2b4f 673d 5490 05be 5fdf a1bd
00000260: 301d 54bc 0524 e2bb 0764 43bd ca15 80bc
00000270: a400 883b a7e3 4d3d b191 06bd f222 19bd
00000280: b80e d13d e69d 4bbe 0277 e93c 8896 803e
00000290: 9d4c 23be 0826 a03d 083a 13be ed06 ef3d
000002a0: 0787 41bd 0853 16bd 000a 063d 9f59 4fbd
000002b0: 279a ce3b 3d28 bfbc 5ee3 933d 2372 2a3d
000002c0: 836d f13d 52f1 87bd 7a81 c23a 0c9f 133c
000002d0: 7b80 d83b 8d3b e33d 4d46 cc3d aca3 d13b
000002e0: 96f2 2abe 7485 913c ae17 53bd fb5e 41bd
000002f0: d325 9cbc c666 933c 3a60 38be 9b0e 0abe
00000300: 0522 483d d913 a03d c486 b0bd 1929 123e
00000310: 6217 10bd 4124 6fbe 6cdb 043d 16a7 e13d
00000320: de6f e63c c940 093e aae0 ddbd 841b 233d
00000330: dfc1 e63d 0004 a23d 9581 a23d c8f1 eb3c
00000340: c8de 753d b588 5bbe 7584 f13d 9652 40bd
00000350: b34f a03b 0446 ccbc 2f43 573c 47ab 58bd
00000360: 3cf8 cbbd 8287 44bd 418a 193e 64ec ff3c
00000370: 8f5e 0abe 8e0a 873d f22e 30bd 2ae5 c63d
00000380: b997 293d de91 76bd acb5 d8bb 46d1 13be
00000390: 062f 3bbe f97f 46bd 80e0 11bd 2242 983a
000003a0: c064 4c3d 0644 163d a569 293d 4b4b e53d
000003b0: 4f90 5f3d 30a5 8a3d c389 7ebd a88a f8bd
000003c0: 81f6 06be 3e26 4ebe 0874 633e e30e 3abd
000003d0: 7217 c8bd cf05 6d3d 264f 523d 5734 7fbd
000003e0: ccf0 e73b 5bb3 1e3d cb19 55bc 728a d13c
000003f0: 73f1 f7bc 2dd8 933c 0c7d 123d cb02 043e

network.0.bias f4 [256]
-0.26094434 -0.34470272 -0.2184604 -0.13148567 -0.35507053 -0.21138929 -0.46934053 -0.22888425
-0.13244148 -0.37403518 -0.33455718 -0.26303625 -0.35802364 -0.24883561 -0.07565781 -0.27771246
-0.13923182 -0.30491808 -0.4935808 -0.27712667 -0.20025781 -0.19286409 -0.2352848 -0.20632727
-0.40916014 -0.21090922 -0.22405906 -0.37144077 -0.3259544 -0.37819764 -0.37348524 -0.17369291
-0.34322655 -0.27678695 -0.23028256 -0.36439592 -0.2925461 -0.27004713 -0.3204214 -0.30030626
-0.31634313 -0.264874 -0.21907043 -0.20831692 -0.33549395 -0.2897647 -0.016279224 -0.32244602
-0.16853714 -0.43691668 -0.32909057 -0.39172345 -0.18517417 -0.12776712 -0.28638637 -0.38933873
-0.23010658 -0.26699704 -0.36128485 -0.15264276 -0.21849538 -0.26907223 -0.31889334 -0.2001042
-0.21949764 -0.34745896 -0.27143243 -0.2744322 -0.24891019 -0.23123342 -0.31575805 -0.24227367
-0.14804211 -0.31109324 -0.30020282 -0.3578948 -0.22461747 -0.17030787 -0.21417245 -0.2658796
-0.31166953 -0.19828998 -0.16522633 -0.16440988 -0.30540106 -0.23696342 -0.3227093 -0.13156113
-0.2957089 -0.16286181 -0.3778681 -0.2489845 -0.30605552 -0.34749162 -0.2736177 -0.19460922
-0.19604114 -0.3369085 -0.24213272 -0.23911057 -0.31579384 -0.38880327 -0.25545365 -0.27286884
-0.22743936 -0.19413897 -0.27899897 -0.2553971 -0.17546007 -0.35892496 -0.3408297 -0.31720728
-0.13730581 -0.26037994 -0.3114001 -0.34462672 -0.37196836 -0.3109356 -0.28150946 -0.36212036
-0.21358132 -0.21269472 -0.4380956 -0.33668202 -0.24436355 -0.3697079 -0.24814375 -0.2989509
-0.29504716 -0.37457567 -0.3352267 -0.15202239 -0.4108386 -0.36970672 -0.43577328 -0.17722483
-0.27771702 -0.17239253 -0.24749939 -0.19998547 -0.4386874 -0.2735981 -0.2166598 -0.2914252
-0.37895006 -0.27584755 -0.21757556 -0.32261387 -0.09808456 -0.25651765 -0.30859327 -0.1998018
-0.24781571 -0.28722233 -0.197845 -0.18038763 -0.2592372 -0.24092229 -0.29262874 -0.23333512
-0.28566262 -0.31428835 -0.1907625 -0.37286657 -0.38553205 -0.3443147 -0.2476512 -0.5154396
-0.16812655 -0.28217995 -0.20311578 -0.1887161 -0.26891938 -0.2982799 -0.27888057 -0.36144835
-0.15343006 -0.30213797 -0.31509075 -0.41884705 -0.29286623 -0.26514176 -0.30111796 -0.18957327
-0.22341877 -0.08542057 -0.30508384 -0.40113878 -0.20962115 -0.34839442 -0.37076974 -0.4031487
-0.15738137 -0.36159402 -0.44000643 -0.2976017 -0.25034043 -0.3588798 -0.14658856 -0.31647566
-0.16174674 -0.22038804 -0.26751128 -0.3011956 -0.26437652 -0.34901923 -0.18780284 -0.31852043
-0.14490381 -0.18440664 -0.35986042 -0.2793821 -0.23538932 -0.18854202 -0.22383927 -0.3558673
-0.30687734 -0.23148611 -0.26366863 -0.35902673 -0.36174384 -0.2541233 -0.23932526 -0.30777812
-0.34612042 -0.35199988 -0.3465303 -0.22146271 -0.2870643 -0.13600785 -0.25365385 -0.32198983
-0.2746854 -0.33676383 -0.25001276 -0.2092831 -0.48160654 -0.26268542 -0.3208589 -0.34196237
-0.18575293 -0.28967762 -0.17756477 -0.31017673 -0.20846535 -0.24000247 -0.3435638 -0.27397323
-0.21640663 -0.27675796 -0.121861614 -0.20610127 -0.41566643 -0.25990674 -0.36678192 -0.32786405
00000000: 7f9a 85be e07c b0be 15b4 5fbe 2ea4 06be
00000010: cecb b5be 6f76 58be 674d f0be a260 6abe
00000020: bd9e 07be 8a81 bfbe 144b abbe b0ac 86be
00000030: e04e b7be c3ce 7ebe 7bf2 9abd 5430 8ebe
00000040: c992 0ebe 391e 9cbe 9fb6 fcbe 8ce3 8dbe
00000050: 6210 4dbe 2a7e 45be 80ee 70be 7547 53be
00000060: 707d d1be 96f8 57be bd6f 65be 7c2d bebe
00000070: 7fe3 a6be 1fa3 c1be 7539 bfbe 8edc 31be
00000080: 64bb afbe 05b7 8dbe 31cf 6bbe 1a92 babe
00000090: 9ac8 95be 9e43 8abe 460e a4be bec1 99be
000000a0: baf7 a1be 919d 87be 0054 60be 0851 55be
000000b0: ddc5 abbe 0a5c 94be 025c 85bc a517 a5be
000000c0: 0095 2cbe 8bb3 dfbe 8f7e a8be fa8f c8be
000000d0: 4c9e 3dbe 62d5 02be 3ca1 92be 6857 c7be
000000e0: 0fa1 6bbe d6b3 88be 54fa b8be 624e 1cbe
000000f0: 41bd 5fbe d6c3 89be fd45 a3be 1ee8 4cbe
00000100: fdc3 60be 24e6 b1be 31f9 8abe 6182 8cbe
00000110: 50e2 7ebe 74c8 6cbe 0aab a1be 9716 78be
00000120: 5a98 17be 9d47 9fbe 2fb4 99be fd3d b7be
00000130: 1f02 66be 3065 2ebe 0650 5bbe 5f21 88be
00000140: 2693 9fbe 870c 4bbe 1731 29be 105b 28be
00000150: 875d 9cbe 8aa6 72be 273a a5be f6b7 06be
00000160: 2867 97be 3fc5 26be ed77 c1be cbf5 7ebe
00000170: 4fb3 9cbe 6cea b1be 9f17 8cbe a447 47be
00000180: 02bf 48be 457f acbe a4f1 77be 67d9 74be
00000190: bbaf a1be 3911 c7be d2ca 82be 77b5 8bbe
000001a0: dde5 68be 5ecc 46be f4d8 8ebe 69c3 82be
000001b0: ceab 33be 03c5 b7be 3b81 aebe fe68 a2be
000001c0: e599 0cbe 8550 85be d56f 9fbe ea72 b0be
000001d0: a372 bebe f332 9fbe 0222 90be d767 b9be
000001e0: 10b5 5abe a5cc 59be 114e e0be 9661 acbe
000001f0: 703a 7abe 5b4a bdbe 6519 7ebe 1810 99be
00000200: 6c10 97be 62c8 bfbe d6a2 abbe c2ab 1bbe
00000210: 7059 d2be 334a bdbe ad1d dfbe 6d7a 35be
00000220: ed30 8ebe ab87 30be 7b70 7dbe fec8 4cbe
00000230: a39b e0be 0d15 8cbe 11dc 5dbe af35 95be
00000240: be05 c2be e43b 8dbe 21cc 5ebe a52d a5be
00000250: 8fe0 c8bd 4856 83be f0ff 9dbe d898 4cbe
00000260: 67c3 7dbe ce0e 93be e197 4abe 89b7 38be
00000270: bdba 84be 55b4 76be 6fd3 95be 67ef 6ebe
00000280: 5f42 92be 67ea a0be 3f57 43be 5ee8 bebe
00000290: 7564 c5be 044a b0be 4798 7dbe daf3 03bf
000002a0: 5e29 2cbe e479 90be 95fd 4fbe cb3e 41be
000002b0: cdaf 89be 25b8 98be 6fc9 8ebe c20f b9be
000002c0: c51c 1dbe d4b1 9abe 9353 a1be 1f73 d6be
000002d0: 90f2 95be a9c0 87be 222c 9abe 7f1f 42be
000002e0: e4c7 64be fbf0 aebd f333 9cbe 1062 cdbe
000002f0: eda6 56be c160 b2be 88d5 bdbe 8269 cebe
00000300: 9528 21be da22 b9be 8648 e1be 405f 98be
00000310: 9f2c 80be 18bf b7be 501b 16be 1909 a2be
00000320: f0a0 25be 67ad 61be 3df7 88be 4f36 9abe
00000330: 5c5c 87be a6b2 b2be 634f 40be 1c15 a3be
00000340: aa61 14be 18d5 3cbe a03f b8be 2c0b 8fbe
00000350: e609 71be 2911 41be 1f36 65be 3d34 b6be
00000360: 071f 9dbe b20a 6dbe 93ff 86be 5ad2 b7be
00000370: 7d36 b9be 731c 82be ae11 75be 1895 9dbe
00000380: b236 b1be 5439 b4be 6b6c b1be 1fc7 62be
00000390: 18fa 92be a445 0bbe ebde 81be dadb a4be
000003a0: 91a3 8cbe 4f6c acbe ac01 80be 4f4e 56be
000003b0: 2295 f6be b47e 86be 9e47 a4be b115 afbe
000003c0: 0436 3ebe a050 94be 8ad3 35be 7ccf 9ebe
000003d0: f177 55be 35c3 75be 98e7 afbe 3846 8cbe
000003e0: b399 5dbe 38b3 8dbe 9592 f9bd 360c 53be
000003f0: 3bd2 d4be 7f12 85be d7ca bbbe ccdd a7be

network.3.weight f4 [256, 256]
0.020715553 0.014465279 -0.08560349 -0.07300245 -0.03828286 0.017932316 -0.0077710217 -0.030726694
0.012801062 -0.0014780748 -0.022186322 0.033162806 0.023772717 -0.0063426406 0.0009445077 0.01535804
-0.03762275 -0.30262396 0.07988263 0.035063293 -0.12329617 -0.00038198795 -0.14228179 0.0046363836
0.028376464 -0.049555935 -0.11376101 0.023113988 0.049676184 0.0028714924 -0.02048063 0.040577438
0.038770106 0.05089681 0.017226713 -0.08571112 -0.028417569 0.039452467 -0.008431516 -0.019249197
0.09230362 -0.018361662 0.044039696 -0.06988874 -0.03581164 -0.08211403 -0.049771678 0.060761172
-0.0069624735 -0.1126223 -0.07983253 -0.036144223 -0.0139087215 -0.21419519 -0.075691506 0.020997703
0.034771428 0.029431175 0.026103538 -0.038639132 0.04291419 0.06451806 0.04107989 -0.0033095255
0.057379656 -0.08445161 0.0127395475 0.018941559 -0.0061023915 0.035540845 -0.041698445 -0.027887449
-0.012182153 0.048120447 0.06884752 -0.0018442621 0.0002973046 0.024984216 -0.04326179 -0.046695303
0.04618386 -0.0070134234 -0.06723933 0.030894868 0.021403335 -0.37334388 0.07462665 0.015182374
-0.12277857 0.020321252 0.03130914 0.004066355 0.021209953 0.007857751 0.029135209 -0.012735809
-0.3105705 0.08260417 0.027492106 -0.07233535 -0.016137628 -0.18625626 0.023659017 -0.03546734
-0.01322486 -0.03856916 -0.17023459 0.006192258 -0.0140994135 -0.03494325 -0.12710533 -0.0040640067
-0.0106794285 0.0023813008 0.022066044 -0.07231207 -0.1851273 0.008309407 -0.011737511 0.028037539
-0.009796692 0.03932134 -0.023452397 -0.06591423 0.0178975 -0.054144166 -0.16918218 -0.02189696
0.0006638137 -0.0996363 0.015663374 0.02991666 -0.036291577 0.01594413 -0.0022814053 0.030965665
-0.026819343 0.060716983 -0.14788684 0.03880453 -0.017855315 -0.23799028 0.008682361 0.030891303
-0.009842795 0.013542592 -0.10222796 -0.34161785 0.0007474183 -0.053864118 -0.017314421 0.012275514
-0.21313673 0.04517779 -0.033865847 0.004668843 -0.030147707 -0.12339694 -0.38924402 -0.16283937
-0.027962208 -0.09396817 -0.008903899 -0.033995256 0.02740598 0.026343707 0.042804155 -0.29164654
-0.018365767 -0.014794624 0.011700649 -0.0015795275 -0.29700142 -0.023902256 -0.00089649326 0.05742271
0.04247443 -0.11058352 0.011404638 0.0168493 -0.09712066 -0.009473579 0.007654837 -0.05153628
0.052493114 0.023793528 7.946564e-06 -0.014575792 0.02110371 -0.26017132 0.026677867 -0.01629361
0.019481817 0.09773133 0.02504459 -0.06688048 -0.04597224 -0.026129687 -0.27535212 0.051008333
-0.13144264 0.052609798 0.022895165 0.051861968 0.03641416 -0.027103603 0.036183618 -0.05374557
0.0025811195 -0.14941412 0.032468714 0.001475637 0.0578794 0.0009610854 0.02377585 0.010117735
0.08206163 -0.07638952 -0.011603986 0.020712567 0.05824447 0.013087412 0.0037995568 -0.014671108
0.029075611 -0.051883433 0.012091543 0.007226267 0.053786304 0.009186169 0.025632335 -0.01852179
0.016280625 -0.015457794 -0.0017709894 0.06582047 -0.16732818 -0.052730866 0.0022174865 0.033295866
-0.067769796 0.0116694225 0.01320421 0.018507387 0.009893295 0.044410232 0.0024837079 0.031425964
0.009355656 -0.0147259785 -0.02386963 0.03463939 -0.13096228 -0.048497763 0.07880002 -0.00056318217
00000000: aab3 a93c c7ff 6c3c e250 afbd 4f82 95bd
00000010: 7dce 1cbd cbe6 923c 0ea4 febb 8cb6 fbbc
00000020: 8cbb 513c f6bb c1ba 17c0 b5bc b9d5 073d
00000030: 00bf c23c edd5 cfbb d798 773a 4aa0 7b3c
00000040: 501a 1abd 87f1 9abe 8199 a33d 879e 0f3d
00000050: b482 fcbd 8e45 c8b9 51b2 11be ceec 973b
00000060: c275 e83c 2afb 4abd 88fb e8bd 8c59 bd3c
00000070: 4179 4b3d a62f 3c3b ffc6 a7bc 8734 263d
00000080: 67cd 1e3d 2c79 503d 091f 8d3c 5089 afbd
00000090: f6cb e8bc e998 213d 5724 0abc 7eb0 9dbc
000000a0: ae09 bd3d 326b 96bc f862 343d d421 8fbd
000000b0: 3aaf 12bd 672b a8bd 63dd 4bbd b5e0 783d
000000c0: 7625 e4bb 85a6 e6bd 3d7f a3bd f70b 14bd
000000d0: 68e1 63bc fc55 5bbe 2604 9bbd 6003 ac3c
000000e0: 7c6c 0e3d a619 f13c 16d7 d53c 1144 1ebd
000000f0: cac6 2f3d 0b22 843d 6343 283d a0e4 58bb
00000100: ee06 6b3d f7f4 acbd 89b9 503c 542b 9b3c
00000110: 92f6 c7bb 4793 113d fdcb 2abd 3874 e4bc
00000120: a797 47bc f219 453d eeff 8c3d 2bbb f1ba
00000130: 8cdf 9b39 b3ab cc3c 4633 31bd 9343 3fbd
00000140: 4a2b 3d3d dcd0 e5bb c6b4 89bd 3c17 fd3c
00000150: 0c56 af3c ee26 bfbe dbd5 983d 7ebf 783c
00000160: 5573 fbbd c178 a63c 033e 003d 0f3f 853b
00000170: 7fc0 ad3c ccbd 003c f6ac ee3c dba9 50bc
00000180: 1903 9fbe 602c a93d 2037 e13c 8e24 94bd
00000190: 0f33 84bc f6b9 3ebe 8ed0 c13c 3446 11bd
000001a0: 15ad 58bc b2fa 1dbd fa51 2ebe 6de8 ca3b
000001b0: 3a01 67bc a720 0fbd e627 02be 5c2b 85bb
000001c0: c5f8 2ebc 990f 1c3b d9c3 b43c 5a18 94bd
000001d0: 0392 3dbe 2e24 083c b04e 40bc fbae e53c
000001e0: 4e82 20bc 6a0f 213d 3e1f c0bc 0afe 86bd
000001f0: c79d 923c 46c6 5dbd 183e 2dbe 4161 b3bc
00000200: c903 2e3a 1e0e ccbd 7a50 803c c913 f53c
00000210: 7aa6 14bd 449d 823c a183 15bb b5ab fd3c
00000220: 3db4 dbbc 5fb2 783d a66f 17be 80f1 1e3d
00000230: 4f45 92bc b9b3 73be 7640 0e3c c20f fd3c
00000240: ad43 21bc bfe1 5d3c e55c d1bd 89e8 aebe
00000250: 65ee 433a 9fa0 5cbd f9d6 8dbc 3d1f 493c
00000260: 8440 5abe 590c 393d eab6 0abd 18fd 983b
00000270: 53f8 f6bc 89b7 fcbd fe4a c7be 5dbf 26be
00000280: 0011 e5bc 6272 c0bd a9e1 11bc 9c3e 0bbd
00000290: 8182 e03c c2ce d73c 6953 2f3d b252 95be
000002a0: ce73 96bc 2765 72bc 14b4 3f3c 2608 cfba
000002b0: 9210 98be aace c3bc a502 6bba 1334 6b3d
000002c0: abf9 2d3d 9d79 e2bd 85da 3a3c 8b07 8a3c
000002d0: 32e7 c6bd 1237 1bbc 6dd5 fa3b b517 53bd
000002e0: 0503 573d a5ea c23c 3c52 0537 4dcf 6ebc
000002f0: b0e1 ac3c 2d35 85be 8b8b da3c 2d7a 85bc
00000300: 5598 9f3c 5d27 c83d 502a cd3c a2f8 88bd
00000310: 634d 3cbd ed0d d6bc f4fa 8cbe 1dee 503d
00000320: e698 06be 5f7d 573d a48e bb3c 376d 543d
00000330: 0427 153d 6008 debc 4635 143d 5124 5cbd
00000340: 0028 293b 0400 19be eafd 043d 296a c13a
00000350: f312 6d3d 59f1 7b3a 92c5 c23c dbc4 253c
00000360: ee0f a83d 1c72 9cbd a51e 3ebc 67ad a93c
00000370: c191 6e3d 966c 563c fc01 793b 165f 70bc
00000380: fa2f ee3c b983 54bd 9b1b 463c 52ca ec3b
00000390: 074f 5c3d 9681 163c e7fa d13c 02bb 97bc
000003a0: f25e 853c b042 7dbc 8b20 e8ba e2cc 863d
000003b0: 1458 2bbe 52fc 57bd 4053 113b 3f61 083d
000003c0: e4ca 8abd 1b31 3f3c 7956 583c ce9c 973c
000003d0: 7d17 223c 81e7 353d b4c5 223b 83b8 003d
000003e0: 7748 193c 3b45 71bc 3e8a c3bc 08e2 0d3d
000003f0: fa1a 06be 97a5 46bd e861 a13d 84a2 13ba

network.3.bias f4 [256]
-0.08647816 0.018247344 0.008056739 -0.10870435 0.01990757 0.060179062 -0.039900165 0.028326076
-0.01024373 -0.04257999 -0.002519736 0.02152448 0.004025533 -0.0029593548 -0.1105901 -0.02412434
-0.030581266 -0.14160769 0.031128053 -0.16651101 0.020636007 0.00784887 -0.024629474 -0.022377383
0.010627136 -0.097234905 0.003209474 0.011538061 0.0030954494 0.01343306 -0.046019673 0.014508558
-0.08298921 0.011586039 0.028889796 0.033184435 -0.2206219 -0.026370047 0.029711643 -0.0079110935
-0.06861867 -0.099823505 0.0008475867 0.014609553 -0.107888006 0.017914208 0.05799685 -0.11014636
-0.059746772 -0.059723333 -0.020909335 -0.0688378 0.005133187 0.027384624 0.021600915 -0.022221033
0.026919236 -0.0152628 -0.041919902 -0.07379331 0.007871292 -0.017062845 0.0063460227 -0.024351733
-0.102464445 -0.032768507 0.0008234627 -0.06392517 0.0040357937 0.01784672 -0.06701719 0.0066359844
0.0074063544 -0.022279507 -0.05020651 -0.13253847 0.024751421 0.02048182 0.012484151 -0.09679421
0.006131729 -0.16833898 -0.023638668 -0.14242077 -0.006153222 0.028915094 0.004501163 -0.12061811
-0.2834461 -0.033970296 -0.28060526 -0.050154954 0.04133069 -0.022077773 -0.005747163 -0.11701743
-0.034513332 -0.017862733 0.016245935 -0.2572103 -0.0031128032 -0.035334665 0.027230317 -0.14921129
0.057817154 -0.006123501 -0.008078153 0.008737481 -0.20463601 0.02695544 -0.03395497 -0.009504557
-0.04123235 -0.047940917 0.013299572 -0.049807303 -0.025075708 -0.13268141 -0.20974638 -0.023688927
-0.027133437 -0.12233291 -0.027222995 -0.12536335 -0.026430206 -0.0038576876 0.05233443 -0.0031468784
0.015368451 0.02622396 0.04320355 -0.03726144 0.016752461 0.0032337443 -0.055436805 0.039995342
-0.023419317 -0.024529506 -0.1553623 -0.008077697 0.05820799 -0.0729657 -0.06306205 -0.05951957
0.0144512 -0.19027615 -0.032099396 -0.012940849 -0.0010866579 0.033402085 -0.26542678 0.0052545513
-0.20281553 -0.06678734 0.07056692 -0.033806153 0.0018696206 -0.0044885846 -0.0053348304 -0.013543136
-0.013995454 -0.012669119 0.016299784 0.0064729 -0.052916415 -0.0126891425 -0.04713449 -0.027350154
-0.012760212 -0.014430943 0.054369207 0.024835873 -0.04132228 -0.043653302 0.030762358 -0.12815219
0.04660045 0.03860146 0.013381456 0.028167468 0.045127586 -0.023952289 0.07177453 -0.01659732
0.008123961 -0.07172043 -0.03413199 0.015063361 0.008466743 -0.027027838 -0.010024469 0.0749401
-0.017992813 0.030912327 -0.08783989 0.07014346 -0.02566602 0.011825548 -0.033781283 -0.041226275
0.024687376 -0.009088359 -0.033545177 -0.11610144 -0.009688413 -0.0044703544 -0.11267949 -0.006995666
-0.26548165 0.030945217 0.026901623 -0.08257611 0.028957324 -0.05008282 -0.03417315 -0.024499984
-0.043537356 -0.020007463 0.018166395 -0.1162092 -0.0358482 4.3717748e-05 0.004424676 0.020392016
0.019218817 0.010020354 -0.041167 -0.022577483 0.031318437 0.047358472 -0.003534492 0.015600183
0.016538985 -0.0037208416 -0.055080622 0.031150449 -0.0141409645 -0.08036959 0.040336676 -0.019809328
0.006649114 0.036335673 -0.00020285766 -0.07056847 -0.02938426 -0.004286318 -0.06744508 -0.0022556414
0.020892967 -0.017186172 0.004367407 -0.17199062 -0.0790208 0.015970286 -0.009854199 0.034976866
00000000: 761b b1bd 747b 953c 6a00 043c 63a0 debd
00000010: 3315 a33c 527e 763d 5b6e 23bd 160c e83c
00000020: 51d5 27bc 5b68 2ebd 2822 25bb 1b54 b03c
00000030: 9ee8 833b bcf1 41bb 107d e2bd 68a0 c5bc
00000040: 9085 fabc 9b01 11be 4200 ff3c dd81 2abe
00000050: d80c a93c 8c98 003c c0c3 c9bc c650 b7bc
00000060: 701d 2e3c 1823 c7bd 0a56 523b 230a 3d3c
00000070: 06dd 4a3b 5616 5c3c 207f 3cbd 4eb5 6d3c
00000080: 3ff6 a9bd 5fd3 3d3c 4baa ec3c 67ec 073d
00000090: b5ea 61be ff05 d8bc d565 f33c 889d 01bc
000000a0: f287 8cbd 4470 ccbd 9530 5e3a e85c 6f3c
000000b0: 63f4 dcbd d1c0 923c 1b8e 6d3d 6a94 e1bd
000000c0: 08b9 74bd 74a0 74bd 0e4a abbc d5fa 8cbd
000000d0: 4b34 a83b b855 e03c 67f4 b03c e208 b6bc
000000e0: bb85 dc3c d310 7abc 34b4 2bbd f220 97bd
000000f0: 97f6 003c 61c7 8bbc 4cf2 cf3b 497d c7bc
00000100: e1d8 d1bd 4538 06bd a5dd 573a 33eb 82bd
00000110: b13e 843b 4933 923c 4f40 89bd ac72 d93b
00000120: 01b1 f23b 8383 b6bc 57a5 4dbd 2ab8 07be
00000130: 7ec3 ca3c 7dc9 a73c 538a 4c3c 0b3c c6bd
00000140: acec c83b 0e61 2cbe e1a5 c1bc c0d6 11be
00000150: f8a0 c9bb 59df ec3c 7e7e 933b a106 f7bd
00000160: d91f 91be 7024 0bbd 7eab 8fbe 486f 4dbd
00000170: 5f4a 293d 72dc b4bc b352 bcbb d6a6 efbd
00000180: da5d 0dbd de54 92bc 3216 853c 12b1 83be
00000190: 2c00 4cbb 15bb 10bd 1d12 df3c d8ca 18be
000001a0: aed1 6c3d a6a7 c8bb 3b5a 04bc a727 0f3c
000001b0: 1a8c 51be a8d1 dc3c 5e14 0bbd 00b9 1bbc
000001c0: 41e3 28bd b25d 44bd 73e6 593c be02 4cbd
000001d0: 926b cdbc a3dd 07be c1c7 56be 480f c2bc
000001e0: f146 debc ad89 fabd c202 dfbc 405f 00be
000001f0: 2984 d8bc 42d1 7cbb a15c 563d dc3b 4ebb
00000200: f5cb 7b3c a1d3 d63c 35f6 303d 749f 18bd
00000210: 753c 893c 3aed 533b b411 63bd 28d2 233d
00000220: ded9 bfbc 1af2 c8bc 4b17 1fbe 5158 04bc
00000230: 806b 6e3d 0a6f 95bd ad26 81bd cbca 73bd
00000240: bac4 6c3c c0d7 42be a87a 03bd db05 54bc
00000250: 306e 8eba a0d0 083d 05e6 87be 5f2e ac3b
00000260: e0ae 4fbe cdc7 88bd 6485 903d 5278 0abd
00000270: 0f0e f53a fa14 93bb cdcf aebb 08e4 5dbc
00000280: 304d 65bc 2392 4fbc 2087 853c 9f1a d43b
00000290: e2be 58bd 1fe6 4fbc 1810 41bd 6e0d e0bc
000002a0: 3510 51bc c36f 6cbc 3fb2 5e3d 9a74 cb3c
000002b0: 8d41 29bd cecd 32bd 5701 fc3c 543a 03be
000002c0: 1de0 3e3d 911c 1e3d e53d 5b3c 76bf e63c
000002d0: b4d7 383d 9737 c4bc 86fe 923d 1af7 87bc
000002e0: 5d1a 053c 29e2 92bd fccd 0bbd 51cc 763c
000002f0: 18b8 0a3c 7c69 ddbc ac3d 24bc 327a 993d
00000300: aa65 93bc d93b fd3c 66e5 b3bd 60a7 8f3d
00000310: 8c41 d2bc f1bf 413c 3e5e 0abd e2dc 28bd
00000320: 2e3d ca3c 57e7 14bc ab66 09bd 97c6 edbd
00000330: 26bc 1ebc 0d7c 92bb 81c4 e6bd e63b e5bb
00000340: 36ed 87be d380 fd3c cb60 dc3c aa1d a9bd
00000350: e937 ed3c a523 4dbd 25f9 0bbd 31b4 c8bc
00000360: 3a54 32bd b1e6 a3bc b1d1 943c 17ff edbd
00000370: 90d5 12bd 935d 3738 dffc 903b 280d a73c
00000380: c870 9d3c 692c 243c ba9e 28bd 6af4 b8bc
00000390: c347 003d f5fa 413d f0a2 67bb e997 7f3c
000003a0: c47c 873c 5dd9 73bb 389c 61bd 3a2f ff3c
000003b0: 81af 67bc d098 a4bd 1238 253d 2c47 a2bc
000003c0: d0e0 d93b b7d4 143d 30b6 54b9 3486 90bd
000003d0: 42b7 f0bc 3e74 8cbb a520 8abd 62d3 13bb
000003e0: ba27 ab3c 04ca 8cbc 771c 8f3b 4f1e 30be
000003f0: a8d5 a1bd 1ed4 823c 8273 21bc e743 0f3d

network.6.weight f4 [256, 256]
-0.094451554 -0.052542094 -0.02249816 0.0066890684 0.040917475 -0.04586014 -0.0033171426 -0.044906363
-0.03460678 -0.02340633 -0.051651273 -0.09134989 -0.04154677 0.026318757 0.06293247 -0.027278263
-0.0062605888 -0.059433185 -0.00031139597 -0.01260546 -0.0231503 -0.004084356 -0.03583337 0.006239
0.050744116 -0.058965687 -0.07815624 0.08447577 -0.04243491 -0.033291157 -0.041219547 -0.041120872
-0.051178984 -0.03236219 0.021838024 -0.031265587 -0.066803 -0.062968336 -0.032509234 -0.04452162
-0.009875895 -0.014732486 -0.064681865 -0.032896433 -0.09178646 -0.017547093 -0.03321278 -0.037973303
-0.022117823 -0.059676707 -0.019056732 -0.041510217 -0.039534308 0.0077191438 -0.032090187 0.012123354
-0.01950849 -0.055651788 -0.01922617 -0.110463984 -0.018989522 0.15090214 -0.0654384 -0.021256113
-0.0041506686 -0.05817791 -0.021505652 -0.04058531 -0.05711165 -0.054817 -0.045070965 0.07606813
-0.044524122 -0.0700744 -0.11061152 -0.032691445 -0.08325774 -0.019287243 -0.025680996 -0.073391296
-0.057448633 -0.059712395 0.037234183 -0.012116364 -0.08757648 -0.02391326 -0.031006861 -0.023977857
-0.10237154 0.014014291 0.061333068 -0.08266037 0.040103946 -0.025724614 0.034127023 0.10371259
0.0036976894 -0.033737343 0.015003825 -0.10223705 -0.008847929 -0.061355278 -0.030382236 0.09983828
-0.034766495 -0.09082781 -0.051183067 -0.023989324 -0.0036913313 0.051605627 -0.05937061 0.06633365
-0.026524005 -0.09277213 -0.043356515 -0.012631534 0.07287101 -0.053452365 -0.06951187 -0.047461823
0.002339416 -0.0014333024 0.01504816 -0.088987954 -0.04596932 0.059746705 -0.016999153 -0.0210038
-0.043292105 -0.05063768 0.004245493 0.062376764 -0.07015268 -0.029292282 -0.0032147635 -0.03311814
-0.027496502 -0.015593852 0.04817825 -0.06455991 0.0037391714 -0.06299709 0.1331696 -0.06698378
0.0823681 -0.010157584 -0.0362522 0.035458036 -0.023834862 -0.0549514 -0.0039841183 0.061844017
0.0055526113 -0.0035367995 -0.032214377 -0.051840227 0.011729173 0.025095502 -0.027586589 0.086818025
0.053839665 -0.025054988 -0.08205138 -0.061974414 -0.061647307 -0.049139697 -0.036073077 -0.045639645
-0.018310243 -0.1176483 -0.03214096 -0.029747333 -0.03532604 -0.053915925 -0.05897374 -0.008523743
-0.013041999 -0.061850674 -0.0041727736 0.0038701613 0.07466951 -0.026567776 -0.013410839 -0.028039351
-0.036759403 -0.065319724 0.069159806 -0.018294144 -0.06672268 0.036393486 -0.088985525 -0.05598012
0.0038892112 0.05100774 -0.026768452 -0.046301115 -0.061171647 -0.073814675 -0.026789768 -0.0021587703
0.019353606 -0.047124077 0.12062114 -0.0029335083 -0.038771454 -0.10602599 0.017625857 0.025742497
-0.042222247 -0.027055722 -0.058210045 -0.00291377 -0.03636581 -0.028679673 -0.01312536 -0.016997155
0.010399207 -0.011333817 -0.008684788 -0.054461814 -0.00047216268 0.010199047 -0.032194726 -0.041776597
-0.04202467 -0.03510705 0.11714551 0.07193309 -0.026776496 0.022988271 0.0196776 -0.04366713
-0.050830994 -0.029322915 -0.008264531 0.11728353 -0.058550343 0.014394149 -0.042968724 -0.09664094
0.113104485 -0.049959373 -0.024881104 0.004060945 -0.0554436 -0.013946279 0.057640247 -0.016322203
-0.04722539 -0.040590968 -0.047220245 0.13678046 -0.07105678 0.020512763 0.06801598 -0.0675166
00000000: d16f c1bd 6136 57bd 104e b8bc f92f db3b
00000010: 1599 273d d8d7 3bbd 6b64 59bb bcef 37bd
00000020: d7bf 0dbd a2be bfbc 4990 53bd a715 bbbd
00000030: f22c 2abd 6f9a d73c bde2 803d aa76 dfbc
00000040: a025 cdbb 3670 73bd dc42 a3b9 2287 4ebc
00000050: b3a5 bdbc 10d6 85bb 03c6 12bd 8670 cc3b
00000060: 10d9 4f3d 0186 71bd 6110 a0bd a201 ad3d
00000070: 3ad0 2dbd 4f5c 08bd d4d5 28bd 5c6e 28bd
00000080: 0ea1 51bd 378e 04bd a8e5 b23c 5810 00bd
00000090: 03d0 88bd 8bf5 80bd 6728 05bd 4d5c 36bd
000000a0: 82ce 21bc 8660 71bc ed77 84bd 69be 06bd
000000b0: 8afa bbbd ecbe 8fbc 200a 08bd e589 1bbd
000000c0: 7030 b5bc 906f 74bd dd1c 9cbc 9e06 2abd
000000d0: baee 21bd dff0 fc3b 0071 03bd 08a1 463c
000000e0: 45d0 9fbc 21f3 63bd 3380 9dbc f13a e2bd
000000f0: ea8f 9bbc 1786 1a3e 9104 86bd 4d21 aebc
00000100: 5502 88bb f64b 6ebd 9f2c b0bc c83c 26bd
00000110: e8ed 69bd ca87 60bd 559c 38bd 9cc9 9b3d
00000120: ed5e 36bd 2b83 8fbd 4b88 e2bd 77e7 05bd
00000130: 0983 aabd 4800 9ebc f460 d2bc 2d4e 96bd
00000140: 424f 6bbd fc94 74bd df82 183d b783 46bc
00000150: 4c5b b3bd bee5 c3bc 1a02 febc 366d c4bc
00000160: 2ca8 d1bd 329c 653c 6238 7b3d d749 a9bd
00000170: 0944 243d 6dbc d2bc c7c8 0b3d 4467 d43d
00000180: ef54 723b 2b30 0abd 9ad2 753c a961 d1bd
00000190: e7f6 10bc ac4f 7bbd 2be4 f8bc 0378 cc3d
000001a0: 5067 0ebd ee03 babd 56a5 51bd 4285 c4bc
000001b0: 43ea 71bb 6c60 533d 992e 73bd f0d9 873d
000001c0: df48 d9bc 51ff bdbd 9a96 31bd 7ef4 4ebc
000001d0: 653d 953d def0 5abd 3d5c 8ebd 5467 42bd
000001e0: e350 193b a6dd bbba 8f8c 763c 513f b6bd
000001f0: 534a 3cbd f6b8 743d cf41 8bbc 2910 acbc
00000200: 1053 31bd 7569 4fbd c71d 8b3b c77e 7f3d
00000210: 35ac 8fbd 5ef6 efbc c8ae 52bb e3a6 07bd
00000220: 5840 e1bc 5b7d 7fbc 8f56 453d fc37 84bd
00000230: e30c 753b 9e04 81bd 9d5d 083e cb2e 89bd
00000240: 9bb0 a83d ff6b 26bc 307d 14bd 723c 113d
00000250: 5441 c3bc b814 61bd 358d 82bb 2750 7d3d
00000260: aef2 b53b a6c9 67bb 39f3 03bd 6b56 54bd
00000270: b82b 403c 1595 cd3c 45fd e1bc a6cd b13d
00000280: fb86 5c3d 1e40 cdbc 8e0a a8bd e2d8 7dbd
00000290: e381 7cbd b546 49bd 5dc1 13bd a3f0 3abd
000002a0: 5dff 95bc 98f1 f0bd 3da6 03bd aeb0 f3bc
000002b0: 0ab2 10bd f2d6 5cbd 738e 71bd 2ba7 0bbc
000002c0: 1cae 55bc 2257 7dbd c3bb 88bb 88a2 7d3b
000002d0: 54ec 983d aaa4 d9bc 23b9 5bbc c8b2 e5bc
000002e0: 0791 16bd 59c6 85bd a8a3 8d3d 9add 95bc
000002f0: e7a5 88bd 5611 153d 0b3e b6bd 694b 65bd
00000300: 23e2 7e3b 7eed 503d 8349 dbbc 3da6 3dbd
00000310: 1f8f 7abd 262c 97bd 3776 dbbc 287a 0dbb
00000320: 748b 9e3c 2d05 41bd 3708 f73d 1a40 40bb
00000330: d1ce 1ebd 2724 d9bd 1a64 903c eee1 d23c
00000340: 3cf1 2cbd f6a3 ddbc a86d 6ebd f3f4 3ebb
00000350: 51f4 14bd a2f1 eabc c00b 57bc 9e3d 8bbc
00000360: 6f61 2a3c 79b1 39bc a44a 0ebc 5a13 5fbd
00000370: 9a8c f7b9 e719 273c 9ede 03bd f01d 2bbd
00000380: 0f22 2cbd 69cc 0fbd fce9 ef3d a851 933d
00000390: 625a dbbc e651 bc3c eb32 a13c 4edc 32bd
000003a0: 2934 50bd 9c36 f0bc f567 07bc 5932 f03d
000003b0: 7cd2 6fbd 70d5 6b3c f9ff 2fbd afeb c5bd
000003c0: 53a3 e73d 33a2 4cbd 75d3 cbbc ad11 853b
000003d0: d418 63bd ef7e 64bc 2e18 6c3d 24b6 85bc
000003e0: 696f 41bd b742 26bd 046a 41bd 2d10 0c3e
000003f0: 3886 91bd 620a a83c f64b 8b3d 2546 8abd

network.6.bias f4 [256]
0.016434537 0.009976863 0.0024690654 0.0037533129 0.021749385 -0.018235125 0.00073808787 -0.0005527118
0.0006945025 0.009147959 0.021217247 0.006927427 0.0019963947 -0.040043477 0.01643895 0.006793514
-0.0007645865 0.016539156 0.006476302 0.011461945 0.008028614 -0.034229375 0.004091996 0.005885756
0.016509715 -0.076056786 0.006920179 0.014265 -0.024984263 -0.06411921 -0.0048592454 0.0028485912
0.003288295 0.0036405239 0.010566587 0.015703773 0.01918867 0.0007727676 0.00022982611 0.005505461
0.010205898 0.008619266 0.004587809 -0.16604224 0.0072093224 0.016310863 0.0008867908 0.01419719
0.0058468627 0.01767513 0.020287424 0.0074861613 -0.010447453 0.00652529 0.013122091 0.0192804
0.012718825 -0.042223863 0.014149083 0.005803082 0.008716854 0.008339217 0.018633887 0.0060285367
-0.0024955904 0.019603796 0.004748501 0.005866247 0.00022052579 0.002441385 0.0154104745 0.005678852
-0.046837196 0.01916154 0.015614909 0.002994012 -0.0026784912 0.0064587565 0.0041241413 -6.623074e-05
0.017823605 -0.01852829 0.0174849 -0.084300674 0.0037157654 0.003330481 -0.0008985126 0.0058238157
0.0040365527 0.0039545367 0.006360305 0.009561398 0.0070389807 0.012483714 0.00926093 0.0066451267
0.004208235 -0.019435605 0.0025032004 0.005137464 0.004542363 0.0013201877 0.019049324 0.0096794395
0.017511975 -0.0011011771 0.002299295 0.02070702 0.0072556087 0.013302117 0.016961891 0.0060792933
0.0038287332 0.017150069 0.004327485 0.0038565963 -0.001980467 0.022065572 0.00190749 -0.036124576
0.0008633898 0.015073608 -0.015165346 0.0024165097 -0.029486053 -0.065052986 -0.0015035893 0.013466604
0.0029110743 0.008601926 0.01566547 -0.098402604 0.015873166 0.017970853 0.0062545235 -0.00135423
-0.049186297 0.019289024 -0.0017029179 0.015462847 -0.025231574 0.00489935 0.009057948 0.0042541833
-0.01726009 -0.0017399893 0.00070358394 0.0070107994 0.00662848 0.007755318 0.011371269 0.012152492
-0.010749928 0.005692844 0.0020450265 0.014703619 0.0018542904 0.008141283 0.011489418 -0.0034748947
0.01569712 0.00014097922 0.0021184753 0.0053855325 0.0036829496 0.007033446 -0.05838113 0.009011474
-0.023583882 0.00623799 0.0039170263 -0.014378439 -0.016601693 0.018110061 0.009377396 0.0057113944
0.0023080297 0.010373355 -0.09532679 -0.012981825 0.010670559 0.006713916 0.018482741 -0.000515508
0.0011732995 0.001821116 0.018290533 0.013067427 0.0028646674 0.0049364106 0.006142789 0.0045199962
0.007224581 0.009866862 0.005832721 -0.00025793593 -0.0009798042 0.00033758377 0.0016074934 0.008660977
0.006589138 -0.00093511044 0.0037637688 0.0021452948 0.02109475 -0.00088590174 0.0035042085 -0.001076271
0.017600209 0.004724406 -0.010979397 0.0074632056 0.0028643494 0.0046842447 -0.009348534 0.0005317663
0.019075137 0.00080014893 0.00519241 -0.032801352 -0.08833254 0.023973724 0.007511221 0.013005888
-0.0025427015 0.0046833605 0.0077872192 -0.022812327 0.008619596 -0.019869551 0.00092058704 -0.027665162
0.0011362609 -0.0035358276 0.0065606763 0.004507309 -0.002795268 -0.07567628 0.007324983 0.0039332435
0.013384934 0.0065977564 0.0020565775 0.013793669 0.0032483314 0.0072595854 0.005034012 0.0034548165
0.0008479101 0.004437132 0.016804725 0.019278485 0.0116550075 -0.0041708103 0.021594236 0.005371367
00000000: b9a1 863c ff75 233c 0bd0 213b 24fa 753b
00000010: c42b b23c d461 95bc 3d7c 413a dce3 10ba
00000020: 460f 363a 52e1 153c cbcf ad3c 78ff e23b
00000030: f2d5 023b a104 24bd faaa 863c 209c de3b
00000040: 886e 48ba 207d 873c 2937 d43b e2ca 3b3c
00000050: 738a 033c 1a34 0cbd 2616 863b 4ddd c03b
00000060: 623f 873c a9c3 9bbd abc2 e23b bfb7 693c
00000070: ccab ccbc ef50 83bd 4e3a 9fbb 6eaf 3a3b
00000080: 6f80 573b db95 6e3b 7a1f 2d3c 33a5 803c
00000090: 8f31 9d3c 8e93 4a3a 7afd 7039 2767 b43b
000000a0: a436 273c d237 0d3c 5555 963b fa06 2abe
000000b0: 2e3c ec3b 5c9e 853c 8677 683a 559b 683c
000000c0: 0a97 bf3b 6fcb 903c d031 a63c 794e f53b
000000d0: cb2b 2bbc 1ad2 d53b 0afe 563c eef1 9d3c
000000e0: 9e62 503c eef2 2cbd 8ed1 673c c827 be3b
000000f0: 23d1 0e3c 36a1 083c 18a6 983c 088b c53b
00000100: 0f8d 23bb 2498 a03c 5099 9b3b a639 c03b
00000110: f13c 6739 a5ff 1f3b 377c 7c3c aa15 ba3b
00000120: 5cd8 3fbd a9f8 9c3c add5 7f3c 3037 443b
00000130: a089 2fbb faa3 d33b ce23 873b 5ce5 8ab8
00000140: cf02 923c a4c8 97bc 7e3c 8f3c d5a5 acbd
00000150: 3384 733b 3344 5a3b 298a 6bba b5d5 be3b
00000160: 0f45 843b 0f95 813b 1b6a d03b 69a7 1c3c
00000170: 40a7 e63b 7e88 4c3c 28bb 173c 5dbf d93b
00000180: 3ce5 893b 6b37 9fbc bc0c 243b 2c58 a83b
00000190: 1ad8 943b 260a ad3a 540d 9c3c 8396 1e3c
000001a0: 4675 8f3c 5f55 90ba c5af 163b c5a1 a93c
000001b0: 75c0 ed3b 1ff1 593c aaf3 8a3c cf34 c73b
000001c0: 7ceb 7a3b 4d7e 8c3c 93cd 8d3b f3be 7c3b
000001d0: b9ca 01bb dcc2 b43c be04 fa3a 5df7 13bd
000001e0: 1c55 623a 4bf7 763c 1278 78bc 4e5e 1e3b
000001f0: bc8c f1bc 803a 85bd 1614 c5ba 08a3 5c3c
00000200: b9c7 3e3b 18ef 0c3c df54 803c 4e87 c9bd
00000210: 7108 823c 9c37 933c bff2 cc3b 6b80 b1ba
00000220: 9277 49bd 0404 9e3c 7134 dfba e257 7d3c
00000230: 72b2 cebc ba8a a03b ca67 143c ad66 8b3b
00000240: 0865 8dbc 5a10 e4ba b870 383a d9ba e53b
00000250: b833 d93b 5320 fe3b 8f4e 3a3c 3f1b 473c
00000260: 7720 30bc 098b ba3b da05 063b 73e7 703c
00000270: a90b f33a 0463 053c 1d3e 3c3c 0fbb 63bb
00000280: 3f97 803c d2d3 1339 1ed6 0a3b 1f79 b03b
00000290: a45d 713b d278 e63b 0d21 6fbd dda4 133c
000002a0: fc32 c1bc 0e68 cc3b 665a 803b 8b93 6bbc
000002b0: 4600 88bc 8d5b 943c a6a3 193c a626 bb3b
000002c0: 5042 173b 01f5 293c b13a c3bd b8b1 54bc
000002d0: 91d3 2e3c 6900 dc3b 1e69 973c 2823 07ba
000002e0: 66c9 993a 83b2 ee3a 07d6 953c c318 563c
000002f0: 25bd 3b3b 9dc1 a13b 7349 c93b 7a1c 943b
00000300: 2ebc ec3b 9ea8 213c 6920 bf3b 933b 87b9
00000310: c66c 80ba bafd b039 87b2 d23a c5e6 0d3c
00000320: b2e9 d73b 3322 75ba 90a9 763b 1398 0c3b
00000330: e6ce ac3c dc3b 68ba dda6 653b a911 8dba
00000340: 502e 903c 31cf 9a3b eee2 33bc e88d f43b
00000350: cfb7 3b3b 4b7e 993b 982a 19bc 3b66 0b3a
00000360: 7643 9c3c 16c1 513a 1825 aa3b b65a 06bd
00000370: b1e7 b4bd 8b64 c43c b020 f63b a616 553c
00000380: 74a3 26bb e076 993b ee2b ff3b ebe0 babc
00000390: 3539 0d3c 78c5 a2bc 8d53 713a 0da2 e2bc
000003a0: 97ee 943a 58b9 67bb f1fa d63b 0cb2 933b
000003b0: d130 37bb 2afc 9abd 6906 f03b 70e2 803b
000003c0: 7b4c 5b3c fe31 d83b a5c7 063b d7fe 613c
000003d0: f5e1 543b d1e1 ed3b 5af4 a43b 346a 623b
000003e0: 4946 5e3a 5c65 913b 10aa 893c eaed 9d3c
000003f0: a5f4 3e3c 4bab 88bb 65e6 b03c 4b02 b03b

network.9.weight f4 [256, 256]
0.03342874 -0.00020769093 0.0014411089 -0.028908951 0.058764327 -0.048331074 -0.03946718 -0.020588065
-0.030219698 0.06334028 0.05793165 -0.045171555 -0.032719534 -0.06467359 0.056360476 -0.038946334
-0.035194848 0.054200813 -0.033065446 0.052334532 0.0015120625 -0.04742438 -0.03100087 -0.03473688
0.03662961 0.027427431 -0.044422273 0.05078657 -0.03960083 0.018116172 -0.039654307 -0.02330638
-0.030436352 -0.033935312 0.042483848 0.058044 0.047774088 -0.045413923 -0.048314262 -0.024985636
-0.027776897 -0.021531228 -0.023147456 0.052201398 -0.031826116 0.06142876 -0.027129019 0.049886778
-0.03461796 0.050894435 0.04428685 -0.03491988 -0.054342747 -0.038027294 -0.03518468 0.055980876
0.04588211 -0.043958656 0.046523053 -0.02021692 -0.029424777 -0.023898855 0.049069922 -0.032741178
-0.013191323 0.0464639 -0.021508744 -0.031042667 -0.034343187 -0.04354663 -0.024329958 -0.028045718
-0.02945465 0.034228325 0.049069237 -0.035787366 -0.03352972 -0.034538243 -0.027987877 -0.061737146
-0.0014041389 0.009515996 0.043066166 0.014350547 -0.03404431 -0.022585638 -0.051054668 -0.027929394
-0.032754462 -0.023363015 0.042094346 -0.0257358 -0.0396975 0.054553732 -0.03644323 -0.034215856
-0.036629952 -0.039320145 -0.03368843 -0.035068817 -0.04380122 -0.038928907 0.0519622 -0.030597372
0.0592827 -0.026820796 -0.03348893 0.07028197 -0.035595722 0.0014458332 0.043149382 -0.030532358
-0.034709893 0.044103418 -0.037372142 -0.041692343 -0.034906942 0.043855146 -0.03967888 -0.05846961
-0.027548293 0.04064149 -0.04646846 -0.034558345 0.028483417 -0.0089621665 -0.02973228 0.05488074
-0.044495005 -0.03618241 0.00038407434 0.013694183 0.032790594 0.046451952 -0.038447976 -0.03575139
-0.03601144 0.03635103 -0.05641567 0.033045094 -0.05206404 -0.037690084 -0.044836402 -0.020255081
-0.030628793 -0.037493397 -0.028743945 -0.038107306 -0.036494497 -0.033003524 -0.039554004 0.053290762
-0.033789895 -0.028652705 -0.04130368 0.043124747 -0.036924705 -0.04719641 0.05284515 -0.03922305
0.056587383 -0.048915792 -0.025202708 -0.024836909 -0.02636568 -0.029279584 0.01738878 -0.014931499
-0.049756385 -0.026201155 -0.031596385 0.028509244 -0.041079033 0.053091865 -0.033941 -0.026743513
-0.04185705 -0.031076761 0.017985143 -0.05286668 -0.03579349 -0.035551906 0.029941814 -0.037379596
-0.048796117 -0.04797928 0.05982082 0.036666684 -0.04337873 0.005189403 -0.041367672 -0.04552891
-0.04527515 -0.02882289 -0.030003998 -0.03667833 -0.044732384 -0.030004159 -0.030489177 -0.031224344
-0.025254004 -0.038194615 -0.040322978 -0.03329316 0.0323478 -0.037503023 -0.03812228 -0.036969468
0.03838406 -0.043588705 -0.041926913 -0.041435946 -0.031988893 -0.03200524 -0.041526467 -0.025028653
0.013577883 -0.032226592 -0.042980388 -0.05372225 0.022499774 0.046328977 -0.036267597 0.05266907
-0.026424399 -0.040434103 -0.036973048 0.038156472 -0.0070298337 -0.029617976 -0.005570482 -0.042852737
-0.04526273 -0.04709155 -0.037007984 -0.031108525 -0.049041238 0.025814211 0.0005276413 -0.0348713
0.042011075 -0.032834735 0.0041081347 -0.030405337 -0.035372306 -0.03618748 -0.02118045 -0.03192411
-0.045383804 -0.036030907 0.05119244 0.054737166 0.057480063 -0.027242612 0.049434192 -0.045565527
00000000: 93ec 083d 9cc7 59b9 97e3 bc3a 77d2 ecbc
00000010: ddb2 703d cef6 45bd 56a8 21bd 4da8 a8bc
00000020: 4d8f f7bc 8cb8 813d bd49 6d3d cf05 39bd
00000030: eb04 06bd 9673 84bd 3eda 663d 3186 1fbd
00000040: 7928 10bd ac01 5e3d a26f 07bd bc5c 563d
00000050: 6630 c63a 1140 42bd 89f5 fdbc 4248 0ebd
00000060: ee08 163d 7eaf e03c 21f4 35bd 9405 503d
00000070: 7b34 22bd 5e68 943c 8e6c 22bd 05ed bebc
00000080: a855 f9bc c1ff 0abd 8b03 2e3d 8cbf 6d3d
00000090: c3ae 433d f303 3abd 2de5 45bd adae ccbc
000000a0: 608c e3bc 4262 b0bc bc9f bdbc 22d1 553d
000000b0: 1a5c 02bd b99c 7b3d ad3d debc 1456 4c3d
000000c0: 90cb 0dbd af76 503d 2166 353d 2608 0fbd
000000d0: 8096 5ebd 82c2 1bbd d01d 10bd 344c 653d
000000e0: e1ee 3b3d fe0d 34bd f58e 3e3d f49d a5bc
000000f0: 3b0c f1bc 88c7 c3bc 8bfd 483d 9d1b 06bd
00000100: 6b20 58bc ee50 3e3d 1b33 b0bc 314d febc
00000110: 71ab 0cbd f35d 32bd 9f4f c7bc 22c0 e5bc
00000120: e14a f1bc 0033 0c3d d3fc 483d c695 12bd
00000130: 7656 09bd f977 0dbd d546 e5bc 17e0 7cbd
00000140: 150b b8ba fbe8 1b3c 2666 303d 8f1e 6b3c
00000150: 0c72 0bbd 8405 b9bc b31e 51bd 2fcc e4bc
00000160: 8b29 06bd cb63 bfbc 1f6b 2c3d e2d3 d2bc
00000170: d999 22bd bc73 5f3d 7f45 15bd ed25 0cbd
00000180: 4a09 16bd 290e 21bd e1fc 09bd 52a4 0fbd
00000190: e868 33bd eb73 1fbd 51d6 543d 57a7 fabc
000001a0: 6bd2 723d 49b7 dbbc b02b 09bd feef 8f3d
000001b0: d2cc 11bd 1d82 bd3a 68bd 303d ff1e fabc
000001c0: f62b 0ebd c9a5 343d 8813 19bd 97c5 2abd
000001d0: 95fa 0ebd 74a1 333d 5286 22bd d47d 6fbd
000001e0: f5ac e1bc b177 263d b655 3ebd 0d8d 0dbd
000001f0: 0e56 e93c 0dd6 12bc 1c91 f3bc a0ca 603d
00000200: 6540 36bd 0234 14bd 965d c939 915d 603c
00000210: 6e4f 063d 6744 3e3d a07b 1dbd 0d70 12bd
00000220: bb80 13bd d1e4 143d 1e14 67bd 4b5a 073d
00000230: 1a41 55bd eb60 1abd 60a6 37bd fced a5bc
00000240: 3ce9 fabc ad92 19bd 6c78 ebbc 6816 1cbd
00000250: 417b 15bd b42e 07bd 6103 22bd 6a47 5a3d
00000260: 4667 0abd 14b9 eabc 0c2e 29bd 93a3 303d
00000270: 5c3e 17bd 0651 41bd 2874 583d 59a8 20bd
00000280: 2cc8 673d ed5b 48bd e975 cebc c676 cbbc
00000290: d7fc d7bc bddb efbc ea72 8e3c 3fa3 74bc
000002a0: 5acd 4bbd cea3 d6bc 366b 01bd 388c e93c
000002b0: 7d42 28bd db76 593d b805 0bbd 3615 dbbc
000002c0: 4c72 2bbd b194 febc 9455 933c bb8a 58bd
000002d0: 329c 12bd e09e 11bd 8948 f53c 591b 19bd
000002e0: 70de 47bd ec85 44bd ad06 753d ce2f 163d
000002f0: e5ad 31bd de0b aa3b 2671 29bd 867c 3abd
00000300: 7072 39bd fb1d ecbc f2ca f5bc 043c 16bd
00000310: 4e39 37bd 48cb f5bc 70c4 f9bc 32ca ffbc
00000320: 7ce1 cebc f571 1cbd b529 25bd 695e 08bd
00000330: 207f 043d c59c 19bd 1c26 1cbd 4c6d 17bd
00000340: 9b38 1d3d 128a 32bd 8ebb 2bbd bdb8 29bd
00000350: c906 03bd ed17 03bd a817 2abd e408 cdbc
00000360: c575 5e3c 0800 04bd 340c 30bd dd0b 5cbd
00000370: 7251 b83c 74c3 3d3d 558d 14bd 86bb 573d
00000380: fb77 d8bc 3b9e 25bd 0d71 17bd f649 1c3d
00000390: 855a e6bb 66a1 f2bc 9788 b6bb 5a86 2fbd
000003a0: 6a65 39bd 12e3 40bd af95 17bd 4ed7 febc
000003b0: 77df 48bd 5378 d33c 6951 0a3a 35d5 0ebd
000003c0: ce13 2c3d b77d 06bd 889d 863b 9d14 f9bc
000003d0: 8de2 10bd 5339 14bd a082 adbc dbc2 02bd
000003e0: 5ee4 39bd 2595 13bd 2aaf 513d 1434 603d
000003f0: 3770 6b3d e62b dfbc 827b 4a3d eba2 3abd
